…
    "    print(results)\n",
    "    #hyper_net.set_params(verbose=0)\n",
    "\n",
    "    return np.mean(results)"
   ]
  },
  {
   "cell_type": "code",
   "execution_count": 35,
   "id": "3b6c3b58",
   "metadata": {
    "scrolled": true
   },
   "outputs": [
    {
     "name": "stderr",
     "output_type": "stream",
     "text": [
      "\u001b[32m[I 2022-12-04 02:06:18,219]\u001b[0m A new study created in memory with name: no-name-373b6635-3473-4627-a116-4d6330406d0a\u001b[0m\n"
     ]
    },
    {
     "name": "stdout",
     "output_type": "stream",
     "text": [
      "Sequential(\n",
      "  (0): Linear(in_features=2048, out_features=29, bias=True)\n",
      "  (1): Dropout(p=0.7860902434560494, inplace=False)\n",
      "  (2): ReLU()\n",
      "  (3): Linear(in_features=29, out_features=85, bias=True)\n",
      ")\n",
      "Sequential(\n",
      "  (0): Linear(in_features=2048, out_features=29, bias=True)\n",
      "  (1): Dropout(p=0.7860902434560494, inplace=False)\n",
      "  (2): ReLU()\n",
      "  (3): Linear(in_features=29, out_features=85, bias=True)\n",
      ")\n",
      "Sequential(\n",
      "  (0): Linear(in_features=2048, out_features=29, bias=True)\n",
      "  (1): Dropout(p=0.7860902434560494, inplace=False)\n",
      "  (2): ReLU()\n",
      "  (3): Linear(in_features=29, out_features=85, bias=True)\n",
      ")\n",
      "  epoch    train_loss    valid_loss    valid_recall_macro     dur\n",
      "-------  ------------  ------------  --------------------  ------\n",
      "      1        \u001b[36m0.6856\u001b[0m        \u001b[32m0.6658\u001b[0m                \u001b[35m0.4582\u001b[0m  0.4086\n",
      "      2        \u001b[36m0.6679\u001b[0m        \u001b[32m0.6354\u001b[0m                0.4243  0.3788\n",
…
     "output_type": "stream",
     "text": [
      "\u001b[32m[I 2022-12-04 02:07:09,796]\u001b[0m Trial 0 finished with value: 0.2969719518144921 and parameters: {'lr': 0.28052514170879267, 'batch_size': 544, 'max_epoch': 44, 'optimizer__momentum': 0, 'optimizer__weight_decay': 0.0021062924378950788, 'n_layers': 1, 'dropout': 0.7860902434560494, 'n_units_l0': 29}. Best is trial 0 with value: 0.2969719518144921.\u001b[0m\n"
     ]
    },
    {
     "name": "stdout",
     "output_type": "stream",
     "text": [
      "[0.2842608876494755, 0.2980059461716024, 0.3086490216223984]\n",
      "Sequential(\n",
      "  (0): Linear(in_features=2048, out_features=13, bias=True)\n",
      "  (1): Dropout(p=0.9853177239098349, inplace=False)\n",
      "  (2): ReLU()\n",
      "  (3): Linear(in_features=13, out_features=85, bias=True)\n",
      ")\n",
      "Sequential(\n",
      "  (0): Linear(in_features=2048, out_features=13, bias=True)\n",
      "  (1): Dropout(p=0.9853177239098349, inplace=False)\n",
      "  (2): ReLU()\n",
      "  (3): Linear(in_features=13, out_features=85, bias=True)\n",
      ")\n",
      "Sequential(\n",
      "  (0): Linear(in_features=2048, out_features=13, bias=True)\n",
      "  (1): Dropout(p=0.9853177239098349, inplace=False)\n",
      "  (2): ReLU()\n",
      "  (3): Linear(in_features=13, out_features=85, bias=True)\n",
      ")\n",
      "  epoch    train_loss    valid_loss    valid_recall_macro     dur\n",
      "-------  ------------  ------------  --------------------  ------\n",
      "      1        \u001b[36m0.7064\u001b[0m        \u001b[32m0.6934\u001b[0m                \u001b[35m0.4474\u001b[0m  0.3136\n",
      "      2        \u001b[36m0.6934\u001b[0m        \u001b[32m0.6924\u001b[0m                0.4361  0.3120\n",
…
     "output_type": "stream",
     "text": [
      "\u001b[32m[I 2022-12-04 02:08:42,397]\u001b[0m Trial 1 finished with value: 0.07692307692307693 and parameters: {'lr': 0.049969747441529294, 'batch_size': 789, 'max_epoch': 83, 'optimizer__momentum': 0, 'optimizer__weight_decay': 0.12561491478468123, 'n_layers': 1, 'dropout': 0.9853177239098349, 'n_units_l0': 13}. Best is trial 0 with value: 0.2969719518144921.\u001b[0m\n"
     ]
    },
    {
     "name": "stdout",
     "output_type": "stream",
     "text": [
      "[0.07692307692307693, 0.07692307692307693, 0.07692307692307693]\n",
      "Sequential(\n",
      "  (0): Linear(in_features=2048, out_features=417, bias=True)\n",
      "  (1): Dropout(p=0.5972101253536976, inplace=False)\n",
      "  (2): ReLU()\n",
      "  (3): Linear(in_features=417, out_features=85, bias=True)\n",
      ")\n",
      "Sequential(\n",
      "  (0): Linear(in_features=2048, out_features=417, bias=True)\n",
      "  (1): Dropout(p=0.5972101253536976, inplace=False)\n",
      "  (2): ReLU()\n",
      "  (3): Linear(in_features=417, out_features=85, bias=True)\n",
      ")\n",
      "Sequential(\n",
      "  (0): Linear(in_features=2048, out_features=417, bias=True)\n",
      "  (1): Dropout(p=0.5972101253536976, inplace=False)\n",
      "  (2): ReLU()\n",
      "  (3): Linear(in_features=417, out_features=85, bias=True)\n",
      ")\n",
      "  epoch    train_loss    valid_loss    valid_recall_macro     dur\n",
      "-------  ------------  ------------  --------------------  ------\n",
      "      1        \u001b[36m0.5964\u001b[0m        \u001b[32m0.4775\u001b[0m                \u001b[35m0.3364\u001b[0m  0.3935\n",
      "      2        \u001b[36m0.4743\u001b[0m        \u001b[32m0.4358\u001b[0m                \u001b[35m0.3711\u001b[0m  0.3204\n",
…
     "output_type": "stream",
     "text": [
      "\u001b[32m[I 2022-12-04 02:08:55,430]\u001b[0m Trial 2 finished with value: 0.3337046826470163 and parameters: {'lr': 0.5454065320166068, 'batch_size': 1505, 'max_epoch': 12, 'optimizer__momentum': 0, 'optimizer__weight_decay': 0.02186260821156418, 'n_layers': 1, 'dropout': 0.5972101253536976, 'n_units_l0': 417}. Best is trial 2 with value: 0.3337046826470163.\u001b[0m\n"
     ]
    },
    {
     "name": "stdout",
     "output_type": "stream",
     "text": [
      "[0.3410485166894815, 0.31599835372004736, 0.3440671775315201]\n",
      "Sequential(\n",
      "  (0): Linear(in_features=2048, out_features=775, bias=True)\n",
      "  (1): Dropout(p=0.3655777533056169, inplace=False)\n",
      "  (2): ReLU()\n",
      "  (3): Linear(in_features=775, out_features=85, bias=True)\n",
      ")\n",
      "Sequential(\n",
      "  (0): Linear(in_features=2048, out_features=775, bias=True)\n",
      "  (1): Dropout(p=0.3655777533056169, inplace=False)\n",
      "  (2): ReLU()\n",
      "  (3): Linear(in_features=775, out_features=85, bias=True)\n",
      ")\n",
      "Sequential(\n",
      "  (0): Linear(in_features=2048, out_features=775, bias=True)\n",
      "  (1): Dropout(p=0.3655777533056169, inplace=False)\n",
      "  (2): ReLU()\n",
      "  (3): Linear(in_features=775, out_features=85, bias=True)\n",
      ")\n",
      "  epoch    train_loss    valid_loss    valid_recall_macro     dur\n",
      "-------  ------------  ------------  --------------------  ------\n",
      "      1        \u001b[36m0.6680\u001b[0m        \u001b[32m0.6342\u001b[0m                \u001b[35m0.3806\u001b[0m  0.4758\n",
      "      2        \u001b[36m0.6088\u001b[0m        \u001b[32m0.5765\u001b[0m                0.3417  0.4162\n",
…
     "output_type": "stream",
     "text": [
      "\u001b[32m[I 2022-12-04 02:10:21,873]\u001b[0m Trial 3 finished with value: 0.2946345163017358 and parameters: {'lr': 0.019099478253930807, 'batch_size': 302, 'max_epoch': 76, 'optimizer__momentum': 0, 'optimizer__weight_decay': 0.031764401719389386, 'n_layers': 1, 'dropout': 0.3655777533056169, 'n_units_l0': 775}. Best is trial 2 with value: 0.3337046826470163.\u001b[0m\n"
     ]
    },
    {
     "name": "stdout",
     "output_type": "stream",
     "text": [
      "[0.3004442293418669, 0.2898138613658784, 0.2936454581974622]\n",
      "Sequential(\n",
      "  (0): Linear(in_features=2048, out_features=706, bias=True)\n",
      "  (1): Dropout(p=0.5297668985378833, inplace=False)\n",
      "  (2): ReLU()\n",
      "  (3): Linear(in_features=706, out_features=1038, bias=True)\n",
      "  (4): Dropout(p=0.5297668985378833, inplace=False)\n",
      "  (5): ReLU()\n",
      "  (6): Linear(in_features=1038, out_features=85, bias=True)\n",
      ")\n",
      "Sequential(\n",
      "  (0): Linear(in_features=2048, out_features=706, bias=True)\n",
      "  (1): Dropout(p=0.5297668985378833, inplace=False)\n",
      "  (2): ReLU()\n",
      "  (3): Linear(in_features=706, out_features=1038, bias=True)\n",
      "  (4): Dropout(p=0.5297668985378833, inplace=False)\n",
      "  (5): ReLU()\n",
      "  (6): Linear(in_features=1038, out_features=85, bias=True)\n",
      ")\n",
      "Sequential(\n",
      "  (0): Linear(in_features=2048, out_features=706, bias=True)\n",
      "  (1): Dropout(p=0.5297668985378833, inplace=False)\n",
      "  (2): ReLU()\n",
      "  (3): Linear(in_features=706, out_features=1038, bias=True)\n",
      "  (4): Dropout(p=0.5297668985378833, inplace=False)\n",
      "  (5): ReLU()\n",
      "  (6): Linear(in_features=1038, out_features=85, bias=True)\n",
      ")\n",
      "  epoch    train_loss    valid_loss    valid_recall_macro     dur\n",
      "-------  ------------  ------------  --------------------  ------\n",
      "      1        \u001b[36m0.6928\u001b[0m        \u001b[32m0.6849\u001b[0m                \u001b[35m0.3798\u001b[0m  0.3218\n",
      "      2        \u001b[36m0.6808\u001b[0m        \u001b[32m0.6748\u001b[0m                0.3476  0.3787\n",
…
     "name": "stderr",
     "output_type": "stream",
     "text": [
      "\u001b[32m[I 2022-12-04 02:11:16,865]\u001b[0m Trial 4 finished with value: 0.12255221807576994 and parameters: {'lr': 0.030158012178882726, 'batch_size': 832, 'max_epoch': 54, 'optimizer__momentum': 0, 'optimizer__weight_decay': 0.02497022014207373, 'n_layers': 2, 'dropout': 0.5297668985378833, 'n_units_l0': 706, 'n_units_l1': 1038}. Best is trial 2 with value: 0.3337046826470163.\u001b[0m\n"
     ]
    },
    {
     "name": "stdout",
     "output_type": "stream",
     "text": [
      "\n",
      "Sequential(\n",
      "  (0): Linear(in_features=2048, out_features=25, bias=True)\n",
      "  (1): Dropout(p=0.8291615228357708, inplace=False)\n",
      "  (2): ReLU()\n",
      "  (3): Linear(in_features=25, out_features=6, bias=True)\n",
      "  (4): Dropout(p=0.8291615228357708, inplace=False)\n",
      "  (5): ReLU()\n",
      "  (6): Linear(in_features=6, out_features=7, bias=True)\n",
      "  (7): Dropout(p=0.8291615228357708, inplace=False)\n",
      "  (8): ReLU()\n",
      "  (9): Linear(in_features=7, out_features=85, bias=True)\n",
      ")\n",
      "Sequential(\n",
      "  (0): Linear(in_features=2048, out_features=25, bias=True)\n",
      "  (1): Dropout(p=0.8291615228357708, inplace=False)\n",
      "  (2): ReLU()\n",
      "  (3): Linear(in_features=25, out_features=6, bias=True)\n",
      "  (4): Dropout(p=0.8291615228357708, inplace=False)\n",
      "  (5): ReLU()\n",
      "  (6): Linear(in_features=6, out_features=7, bias=True)\n",
      "  (7): Dropout(p=0.8291615228357708, inplace=False)\n",
      "  (8): ReLU()\n",
      "  (9): Linear(in_features=7, out_features=85, bias=True)\n",
      ")\n",
      "Sequential(\n",
      "  (0): Linear(in_features=2048, out_features=25, bias=True)\n",
      "  (1): Dropout(p=0.8291615228357708, inplace=False)\n",
      "  (2): ReLU()\n",
      "  (3): Linear(in_features=25, out_features=6, bias=True)\n",
      "  (4): Dropout(p=0.8291615228357708, inplace=False)\n",
      "  (5): ReLU()\n",
      "  (6): Linear(in_features=6, out_features=7, bias=True)\n",
      "  (7): Dropout(p=0.8291615228357708, inplace=False)\n",
      "  (8): ReLU()\n",
      "  (9): Linear(in_features=7, out_features=85, bias=True)\n",
      ")\n",
      "  epoch    train_loss    valid_loss    valid_recall_macro     dur\n",
      "-------  ------------  ------------  --------------------  ------\n",
      "      1        \u001b[36m0.7034\u001b[0m        \u001b[32m0.6895\u001b[0m                \u001b[35m0.5013\u001b[0m  0.2015\n",
      "      2        \u001b[36m0.7000\u001b[0m        \u001b[32m0.6895\u001b[0m                \u001b[35m0.5034\u001b[0m  0.2613\n",
…
      "\u001b[32m[I 2022-12-04 02:12:36,641]\u001b[0m Trial 5 finished with value: 0.07692307692307693 and parameters: {'lr': 0.006344175438736486, 'batch_size': 1644, 'max_epoch': 79, 'optimizer__momentum': 0, 'optimizer__weight_decay': 0.341052012184133, 'n_layers': 3, 'dropout': 0.8291615228357708, 'n_units_l0': 25, 'n_units_l1': 6, 'n_units_l2': 7}. Best is trial 2 with value: 0.3337046826470163.\u001b[0m\n"
     ]
    },
    {
     "name": "stdout",
     "output_type": "stream",
     "text": [
      "[0.07692307692307693, 0.07692307692307693, 0.07692307692307693]\n",
      "Sequential(\n",
      "  (0): Linear(in_features=2048, out_features=9, bias=True)\n",
      "  (1): Dropout(p=0.4199311391131755, inplace=False)\n",
      "  (2): ReLU()\n",
      "  (3): Linear(in_features=9, out_features=85, bias=True)\n",
      ")\n",
      "Sequential(\n",
      "  (0): Linear(in_features=2048, out_features=9, bias=True)\n",
      "  (1): Dropout(p=0.4199311391131755, inplace=False)\n",
      "  (2): ReLU()\n",
      "  (3): Linear(in_features=9, out_features=85, bias=True)\n",
      ")\n",
      "Sequential(\n",
      "  (0): Linear(in_features=2048, out_features=9, bias=True)\n",
      "  (1): Dropout(p=0.4199311391131755, inplace=False)\n",
      "  (2): ReLU()\n",
      "  (3): Linear(in_features=9, out_features=85, bias=True)\n",
      ")\n",
      "  epoch    train_loss    valid_loss    valid_recall_macro     dur\n",
      "-------  ------------  ------------  --------------------  ------\n",
      "      1        \u001b[36m0.6923\u001b[0m        \u001b[32m0.6900\u001b[0m                \u001b[35m0.5087\u001b[0m  0.2289\n",
      "      2        \u001b[36m0.6916\u001b[0m        \u001b[32m0.6895\u001b[0m                0.5082  0.2239\n",
…
     "output_type": "stream",
     "text": [
      "\u001b[32m[I 2022-12-04 02:14:07,800]\u001b[0m Trial 6 finished with value: 0.09765508834767334 and parameters: {'lr': 0.003138845961829898, 'batch_size': 1667, 'max_epoch': 89, 'optimizer__momentum': 0, 'optimizer__weight_decay': 0.004255547016563781, 'n_layers': 1, 'dropout': 0.4199311391131755, 'n_units_l0': 9}. Best is trial 2 with value: 0.3337046826470163.\u001b[0m\n"
     ]
    },
    {
     "name": "stdout",
     "output_type": "stream",
     "text": [
      "[0.10646934067538, 0.09461614537656594, 0.09187977899107408]\n",
      "Sequential(\n",
      "  (0): Linear(in_features=2048, out_features=6, bias=True)\n",
      "  (1): Dropout(p=0.7677252331712743, inplace=False)\n",
      "  (2): ReLU()\n",
      "  (3): Linear(in_features=6, out_features=16, bias=True)\n",
      "  (4): Dropout(p=0.7677252331712743, inplace=False)\n",
      "  (5): ReLU()\n",
      "  (6): Linear(in_features=16, out_features=85, bias=True)\n",
      ")\n",
      "Sequential(\n",
      "  (0): Linear(in_features=2048, out_features=6, bias=True)\n",
      "  (1): Dropout(p=0.7677252331712743, inplace=False)\n",
      "  (2): ReLU()\n",
      "  (3): Linear(in_features=6, out_features=16, bias=True)\n",
      "  (4): Dropout(p=0.7677252331712743, inplace=False)\n",
      "  (5): ReLU()\n",
      "  (6): Linear(in_features=16, out_features=85, bias=True)\n",
      ")\n",
      "Sequential(\n",
      "  (0): Linear(in_features=2048, out_features=6, bias=True)\n",
      "  (1): Dropout(p=0.7677252331712743, inplace=False)\n",
      "  (2): ReLU()\n",
      "  (3): Linear(in_features=6, out_features=16, bias=True)\n",
      "  (4): Dropout(p=0.7677252331712743, inplace=False)\n",
      "  (5): ReLU()\n",
      "  (6): Linear(in_features=16, out_features=85, bias=True)\n",
      ")\n",
      "  epoch    train_loss    valid_loss    valid_recall_macro     dur\n",
      "-------  ------------  ------------  --------------------  ------\n",
      "      1        \u001b[36m0.6897\u001b[0m        \u001b[32m0.6892\u001b[0m                \u001b[35m0.3294\u001b[0m  0.3217\n",
      "      2        \u001b[36m0.6892\u001b[0m        0.6893                0.2706  0.3140\n",
…
     "text": [
      "\u001b[32m[I 2022-12-04 02:15:25,274]\u001b[0m Trial 7 finished with value: 0.07692307692307693 and parameters: {'lr': 0.9850145180283247, 'batch_size': 840, 'max_epoch': 70, 'optimizer__momentum': 0, 'optimizer__weight_decay': 0.26490088781342747, 'n_layers': 2, 'dropout': 0.7677252331712743, 'n_units_l0': 6, 'n_units_l1': 16}. Best is trial 2 with value: 0.3337046826470163.\u001b[0m\n"
     ]
    },
    {
     "name": "stdout",
     "output_type": "stream",
     "text": [
      "[0.07692307692307693, 0.07692307692307693, 0.07692307692307693]\n",
      "Sequential(\n",
      "  (0): Linear(in_features=2048, out_features=180, bias=True)\n",
      "  (1): Dropout(p=0.36643137206464116, inplace=False)\n",
      "  (2): ReLU()\n",
      "  (3): Linear(in_features=180, out_features=48, bias=True)\n",
      "  (4): Dropout(p=0.36643137206464116, inplace=False)\n",
      "  (5): ReLU()\n",
      "  (6): Linear(in_features=48, out_features=85, bias=True)\n",
      ")\n",
      "Sequential(\n",
      "  (0): Linear(in_features=2048, out_features=180, bias=True)\n",
      "  (1): Dropout(p=0.36643137206464116, inplace=False)\n",
      "  (2): ReLU()\n",
      "  (3): Linear(in_features=180, out_features=48, bias=True)\n",
      "  (4): Dropout(p=0.36643137206464116, inplace=False)\n",
      "  (5): ReLU()\n",
      "  (6): Linear(in_features=48, out_features=85, bias=True)\n",
      ")\n",
      "Sequential(\n",
      "  (0): Linear(in_features=2048, out_features=180, bias=True)\n",
      "  (1): Dropout(p=0.36643137206464116, inplace=False)\n",
      "  (2): ReLU()\n",
      "  (3): Linear(in_features=180, out_features=48, bias=True)\n",
      "  (4): Dropout(p=0.36643137206464116, inplace=False)\n",
      "  (5): ReLU()\n",
      "  (6): Linear(in_features=48, out_features=85, bias=True)\n",
      ")\n",
      "  epoch    train_loss    valid_loss    valid_recall_macro     dur\n",
      "-------  ------------  ------------  --------------------  ------\n",
      "      1        \u001b[36m0.6755\u001b[0m        \u001b[32m0.6147\u001b[0m                \u001b[35m0.2765\u001b[0m  0.3522\n",
      "      2        \u001b[36m0.5507\u001b[0m        \u001b[32m0.4910\u001b[0m                \u001b[35m0.3049\u001b[0m  0.2914\n",
…
     "text": [
      "\u001b[32m[I 2022-12-04 02:16:08,970]\u001b[0m Trial 8 finished with value: 0.16602307338181227 and parameters: {'lr': 0.3997775020286104, 'batch_size': 557, 'max_epoch': 41, 'optimizer__momentum': 0, 'optimizer__weight_decay': 0.026541952475395897, 'n_layers': 2, 'dropout': 0.36643137206464116, 'n_units_l0': 180, 'n_units_l1': 48}. Best is trial 2 with value: 0.3337046826470163.\u001b[0m\n"
     ]
    },
    {
     "name": "stdout",
     "output_type": "stream",
     "text": [
      "[0.15673238331680264, 0.19678377915183806, 0.1445530576767961]\n",
      "Sequential(\n",
      "  (0): Linear(in_features=2048, out_features=195, bias=True)\n",
      "  (1): Dropout(p=0.14066330959375134, inplace=False)\n",
      "  (2): ReLU()\n",
      "  (3): Linear(in_features=195, out_features=85, bias=True)\n",
      ")\n",
      "Sequential(\n",
      "  (0): Linear(in_features=2048, out_features=195, bias=True)\n",
      "  (1): Dropout(p=0.14066330959375134, inplace=False)\n",
      "  (2): ReLU()\n",
      "  (3): Linear(in_features=195, out_features=85, bias=True)\n",
      ")\n",
      "Sequential(\n",
      "  (0): Linear(in_features=2048, out_features=195, bias=True)\n",
      "  (1): Dropout(p=0.14066330959375134, inplace=False)\n",
      "  (2): ReLU()\n",
      "  (3): Linear(in_features=195, out_features=85, bias=True)\n",
      ")\n",
      "  epoch    train_loss    valid_loss    valid_recall_macro     dur\n",
      "-------  ------------  ------------  --------------------  ------\n",
      "      1        \u001b[36m0.6974\u001b[0m        \u001b[32m0.6959\u001b[0m                \u001b[35m0.5145\u001b[0m  0.3001\n",
      "      2        \u001b[36m0.6965\u001b[0m        \u001b[32m0.6950\u001b[0m                0.5121  0.2701\n",
…
     "output_type": "stream",
     "text": [
      "\u001b[32m[I 2022-12-04 02:17:30,373]\u001b[0m Trial 9 finished with value: 0.08499327360627253 and parameters: {'lr': 0.0010098395854449443, 'batch_size': 899, 'max_epoch': 78, 'optimizer__momentum': 0, 'optimizer__weight_decay': 0.18040906643789026, 'n_layers': 1, 'dropout': 0.14066330959375134, 'n_units_l0': 195}. Best is trial 2 with value: 0.3337046826470163.\u001b[0m\n"
     ]
    },
    {
     "name": "stdout",
     "output_type": "stream",
     "text": [
      "[0.08454002108987344, 0.09046505256285234, 0.0799747471660918]\n",
      "Sequential(\n",
      "  (0): Linear(in_features=2048, out_features=1702, bias=True)\n",
      "  (1): Dropout(p=0.6330563273377352, inplace=False)\n",
      "  (2): ReLU()\n",
      "  (3): Linear(in_features=1702, out_features=1752, bias=True)\n",
      "  (4): Dropout(p=0.6330563273377352, inplace=False)\n",
      "  (5): ReLU()\n",
      "  (6): Linear(in_features=1752, out_features=1578, bias=True)\n",
      "  (7): Dropout(p=0.6330563273377352, inplace=False)\n",
      "  (8): ReLU()\n",
      "  (9): Linear(in_features=1578, out_features=85, bias=True)\n",
      ")\n",
      "Sequential(\n",
      "  (0): Linear(in_features=2048, out_features=1702, bias=True)\n",
      "  (1): Dropout(p=0.6330563273377352, inplace=False)\n",
      "  (2): ReLU()\n",
      "  (3): Linear(in_features=1702, out_features=1752, bias=True)\n",
      "  (4): Dropout(p=0.6330563273377352, inplace=False)\n",
      "  (5): ReLU()\n",
      "  (6): Linear(in_features=1752, out_features=1578, bias=True)\n",
      "  (7): Dropout(p=0.6330563273377352, inplace=False)\n",
      "  (8): ReLU()\n",
      "  (9): Linear(in_features=1578, out_features=85, bias=True)\n",
      ")\n",
      "Sequential(\n",
      "  (0): Linear(in_features=2048, out_features=1702, bias=True)\n",
      "  (1): Dropout(p=0.6330563273377352, inplace=False)\n",
      "  (2): ReLU()\n",
      "  (3): Linear(in_features=1702, out_features=1752, bias=True)\n",
      "  (4): Dropout(p=0.6330563273377352, inplace=False)\n",
      "  (5): ReLU()\n",
      "  (6): Linear(in_features=1752, out_features=1578, bias=True)\n",
      "  (7): Dropout(p=0.6330563273377352, inplace=False)\n",
      "  (8): ReLU()\n",
      "  (9): Linear(in_features=1578, out_features=85, bias=True)\n",
      ")\n",
      "  epoch    train_loss    valid_loss    valid_recall_macro     dur\n",
      "-------  ------------  ------------  --------------------  ------\n",
      "      1        \u001b[36m0.6889\u001b[0m        \u001b[32m0.6843\u001b[0m                \u001b[35m0.3780\u001b[0m  0.5327\n",
      "      2        \u001b[36m0.6745\u001b[0m        \u001b[32m0.6752\u001b[0m                0.3209  0.2721\n",
…
      "\u001b[32m[I 2022-12-04 02:17:44,128]\u001b[0m Trial 10 finished with value: 0.07437619194782673 and parameters: {'lr': 0.12360123177261283, 'batch_size': 2038, 'max_epoch': 13, 'optimizer__momentum': 0, 'optimizer__weight_decay': 0.004167929209132742, 'n_layers': 3, 'dropout': 0.6330563273377352, 'n_units_l0': 1702, 'n_units_l1': 1752, 'n_units_l2': 1578}. Best is trial 2 with value: 0.3337046826470163.\u001b[0m\n"
     ]
    },
    {
     "name": "stdout",
     "output_type": "stream",
     "text": [
      "[0.07692307692307693, 0.07695893117273209, 0.06924656774767118]\n",
      "Sequential(\n",
      "  (0): Linear(in_features=2048, out_features=49, bias=True)\n",
      "  (1): Dropout(p=0.7297381058638287, inplace=False)\n",
      "  (2): ReLU()\n",
      "  (3): Linear(in_features=49, out_features=85, bias=True)\n",
      ")\n",
      "Sequential(\n",
      "  (0): Linear(in_features=2048, out_features=49, bias=True)\n",
      "  (1): Dropout(p=0.7297381058638287, inplace=False)\n",
      "  (2): ReLU()\n",
      "  (3): Linear(in_features=49, out_features=85, bias=True)\n",
      ")\n",
      "Sequential(\n",
      "  (0): Linear(in_features=2048, out_features=49, bias=True)\n",
      "  (1): Dropout(p=0.7297381058638287, inplace=False)\n",
      "  (2): ReLU()\n",
      "  (3): Linear(in_features=49, out_features=85, bias=True)\n",
      ")\n",
      "  epoch    train_loss    valid_loss    valid_recall_macro     dur\n",
      "-------  ------------  ------------  --------------------  ------\n",
      "      1        \u001b[36m0.6883\u001b[0m        \u001b[32m0.6630\u001b[0m                \u001b[35m0.3870\u001b[0m  0.2073\n",
      "      2        \u001b[36m0.6689\u001b[0m        \u001b[32m0.6359\u001b[0m                \u001b[35m0.3877\u001b[0m  0.2017\n",
…
     "output_type": "stream",
     "text": [
      "\u001b[32m[I 2022-12-04 02:17:50,567]\u001b[0m Trial 11 finished with value: 0.14165032724655743 and parameters: {'lr': 0.23544076135107045, 'batch_size': 1299, 'max_epoch': 7, 'optimizer__momentum': 0, 'optimizer__weight_decay': 0.001242172927926578, 'n_layers': 1, 'dropout': 0.7297381058638287, 'n_units_l0': 49}. Best is trial 2 with value: 0.3337046826470163.\u001b[0m\n"
     ]
    },
    {
     "name": "stdout",
     "output_type": "stream",
     "text": [
      "[0.11589312335248507, 0.1144170529709124, 0.19464080541627482]\n",
      "Sequential(\n",
      "  (0): Linear(in_features=2048, out_features=163, bias=True)\n",
      "  (1): Dropout(p=0.9223571168507352, inplace=False)\n",
      "  (2): ReLU()\n",
      "  (3): Linear(in_features=163, out_features=85, bias=True)\n",
      ")\n",
      "Sequential(\n",
      "  (0): Linear(in_features=2048, out_features=163, bias=True)\n",
      "  (1): Dropout(p=0.9223571168507352, inplace=False)\n",
      "  (2): ReLU()\n",
      "  (3): Linear(in_features=163, out_features=85, bias=True)\n",
      ")\n",
      "Sequential(\n",
      "  (0): Linear(in_features=2048, out_features=163, bias=True)\n",
      "  (1): Dropout(p=0.9223571168507352, inplace=False)\n",
      "  (2): ReLU()\n",
      "  (3): Linear(in_features=163, out_features=85, bias=True)\n",
      ")\n",
      "  epoch    train_loss    valid_loss    valid_recall_macro     dur\n",
      "-------  ------------  ------------  --------------------  ------\n",
      "      1        \u001b[36m0.4835\u001b[0m        \u001b[32m0.3232\u001b[0m                \u001b[35m0.5051\u001b[0m  0.9983\n",
      "      2        \u001b[36m0.4081\u001b[0m        \u001b[32m0.3049\u001b[0m                \u001b[35m0.5245\u001b[0m  0.8482\n",
…
     "output_type": "stream",
     "text": [
      "\u001b[32m[I 2022-12-04 02:19:14,159]\u001b[0m Trial 12 finished with value: 0.2959474220069518 and parameters: {'lr': 0.7245877879046831, 'batch_size': 32, 'max_epoch': 33, 'optimizer__momentum': 0, 'optimizer__weight_decay': 0.00652160605775731, 'n_layers': 1, 'dropout': 0.9223571168507352, 'n_units_l0': 163}. Best is trial 2 with value: 0.3337046826470163.\u001b[0m\n"
     ]
    },
    {
     "name": "stdout",
     "output_type": "stream",
     "text": [
      "[0.2917658014358697, 0.23753849836813604, 0.3585379662168497]\n",
      "Sequential(\n",
      "  (0): Linear(in_features=2048, out_features=64, bias=True)\n",
      "  (1): Dropout(p=0.6290039672071415, inplace=False)\n",
      "  (2): ReLU()\n",
      "  (3): Linear(in_features=64, out_features=243, bias=True)\n",
      "  (4): Dropout(p=0.6290039672071415, inplace=False)\n",
      "  (5): ReLU()\n",
      "  (6): Linear(in_features=243, out_features=85, bias=True)\n",
      ")\n",
      "Sequential(\n",
      "  (0): Linear(in_features=2048, out_features=64, bias=True)\n",
      "  (1): Dropout(p=0.6290039672071415, inplace=False)\n",
      "  (2): ReLU()\n",
      "  (3): Linear(in_features=64, out_features=243, bias=True)\n",
      "  (4): Dropout(p=0.6290039672071415, inplace=False)\n",
      "  (5): ReLU()\n",
      "  (6): Linear(in_features=243, out_features=85, bias=True)\n",
      ")\n",
      "Sequential(\n",
      "  (0): Linear(in_features=2048, out_features=64, bias=True)\n",
      "  (1): Dropout(p=0.6290039672071415, inplace=False)\n",
      "  (2): ReLU()\n",
      "  (3): Linear(in_features=64, out_features=243, bias=True)\n",
      "  (4): Dropout(p=0.6290039672071415, inplace=False)\n",
      "  (5): ReLU()\n",
      "  (6): Linear(in_features=243, out_features=85, bias=True)\n",
      ")\n",
      "  epoch    train_loss    valid_loss    valid_recall_macro     dur\n",
      "-------  ------------  ------------  --------------------  ------\n",
      "      1        \u001b[36m0.6971\u001b[0m        \u001b[32m0.6869\u001b[0m                \u001b[35m0.4825\u001b[0m  0.2516\n",
      "      2        \u001b[36m0.6863\u001b[0m        \u001b[32m0.6750\u001b[0m                0.4263  0.2283\n",
…
      "\u001b[32m[I 2022-12-04 02:19:37,852]\u001b[0m Trial 13 finished with value: 0.1712085126006876 and parameters: {'lr': 0.13774558411333104, 'batch_size': 1254, 'max_epoch': 24, 'optimizer__momentum': 0, 'optimizer__weight_decay': 0.0012209759607933592, 'n_layers': 2, 'dropout': 0.6290039672071415, 'n_units_l0': 64, 'n_units_l1': 243}. Best is trial 2 with value: 0.3337046826470163.\u001b[0m\n"
     ]
    },
    {
     "name": "stdout",
     "output_type": "stream",
     "text": [
      "[0.14970972691319728, 0.16958289345297856, 0.19433291743588696]\n",
      "Sequential(\n",
      "  (0): Linear(in_features=2048, out_features=423, bias=True)\n",
      "  (1): Dropout(p=0.52734814012937, inplace=False)\n",
      "  (2): ReLU()\n",
      "  (3): Linear(in_features=423, out_features=85, bias=True)\n",
      ")\n",
      "Sequential(\n",
      "  (0): Linear(in_features=2048, out_features=423, bias=True)\n",
      "  (1): Dropout(p=0.52734814012937, inplace=False)\n",
      "  (2): ReLU()\n",
      "  (3): Linear(in_features=423, out_features=85, bias=True)\n",
      ")\n",
      "Sequential(\n",
      "  (0): Linear(in_features=2048, out_features=423, bias=True)\n",
      "  (1): Dropout(p=0.52734814012937, inplace=False)\n",
      "  (2): ReLU()\n",
      "  (3): Linear(in_features=423, out_features=85, bias=True)\n",
      ")\n",
      "  epoch    train_loss    valid_loss    valid_recall_macro     dur\n",
      "-------  ------------  ------------  --------------------  ------\n",
      "      1        \u001b[36m0.6727\u001b[0m        \u001b[32m0.6356\u001b[0m                \u001b[35m0.3602\u001b[0m  0.3223\n",
      "      2        \u001b[36m0.6180\u001b[0m        \u001b[32m0.5813\u001b[0m                0.3274  0.2885\n",
…
     "output_type": "stream",
     "text": [
      "\u001b[32m[I 2022-12-04 02:20:32,987]\u001b[0m Trial 14 finished with value: 0.1467150598979924 and parameters: {'lr': 0.09404557647755836, 'batch_size': 1318, 'max_epoch': 55, 'optimizer__momentum': 0, 'optimizer__weight_decay': 0.06053332145581725, 'n_layers': 1, 'dropout': 0.52734814012937, 'n_units_l0': 423}. Best is trial 2 with value: 0.3337046826470163.\u001b[0m\n"
     ]
    },
    {
     "name": "stdout",
     "output_type": "stream",
     "text": [
      "[0.11728048624749782, 0.1698937719665924, 0.15297092147988706]\n",
      "Sequential(\n",
      "  (0): Linear(in_features=2048, out_features=31, bias=True)\n",
      "  (1): Dropout(p=0.8613327067279857, inplace=False)\n",
      "  (2): ReLU()\n",
      "  (3): Linear(in_features=31, out_features=193, bias=True)\n",
      "  (4): Dropout(p=0.8613327067279857, inplace=False)\n",
      "  (5): ReLU()\n",
      "  (6): Linear(in_features=193, out_features=85, bias=True)\n",
      ")\n",
      "Sequential(\n",
      "  (0): Linear(in_features=2048, out_features=31, bias=True)\n",
      "  (1): Dropout(p=0.8613327067279857, inplace=False)\n",
      "  (2): ReLU()\n",
      "  (3): Linear(in_features=31, out_features=193, bias=True)\n",
      "  (4): Dropout(p=0.8613327067279857, inplace=False)\n",
      "  (5): ReLU()\n",
      "  (6): Linear(in_features=193, out_features=85, bias=True)\n",
      ")\n",
      "Sequential(\n",
      "  (0): Linear(in_features=2048, out_features=31, bias=True)\n",
      "  (1): Dropout(p=0.8613327067279857, inplace=False)\n",
      "  (2): ReLU()\n",
      "  (3): Linear(in_features=31, out_features=193, bias=True)\n",
      "  (4): Dropout(p=0.8613327067279857, inplace=False)\n",
      "  (5): ReLU()\n",
      "  (6): Linear(in_features=193, out_features=85, bias=True)\n",
      ")\n",
      "  epoch    train_loss    valid_loss    valid_recall_macro     dur\n",
      "-------  ------------  ------------  --------------------  ------\n",
      "      1        \u001b[36m0.6871\u001b[0m        \u001b[32m0.6751\u001b[0m                \u001b[35m0.3583\u001b[0m  0.3402\n",
      "      2        \u001b[36m0.6696\u001b[0m        \u001b[32m0.6573\u001b[0m                0.3372  0.3432\n",
…
     "text": [
      "\u001b[32m[I 2022-12-04 02:20:59,058]\u001b[0m Trial 15 finished with value: 0.09130869951567726 and parameters: {'lr': 0.2875323376637923, 'batch_size': 483, 'max_epoch': 23, 'optimizer__momentum': 0, 'optimizer__weight_decay': 0.010118691806902579, 'n_layers': 2, 'dropout': 0.8613327067279857, 'n_units_l0': 31, 'n_units_l1': 193}. Best is trial 2 with value: 0.3337046826470163.\u001b[0m\n"
     ]
    },
    {
     "name": "stdout",
     "output_type": "stream",
     "text": [
      "[0.07692307692307693, 0.07692307692307693, 0.12007994470087792]\n",
      "Sequential(\n",
      "  (0): Linear(in_features=2048, out_features=4, bias=True)\n",
      "  (1): Dropout(p=0.679604028880842, inplace=False)\n",
      "  (2): ReLU()\n",
      "  (3): Linear(in_features=4, out_features=85, bias=True)\n",
      ")\n",
      "Sequential(\n",
      "  (0): Linear(in_features=2048, out_features=4, bias=True)\n",
      "  (1): Dropout(p=0.679604028880842, inplace=False)\n",
      "  (2): ReLU()\n",
      "  (3): Linear(in_features=4, out_features=85, bias=True)\n",
      ")\n",
      "Sequential(\n",
      "  (0): Linear(in_features=2048, out_features=4, bias=True)\n",
      "  (1): Dropout(p=0.679604028880842, inplace=False)\n",
      "  (2): ReLU()\n",
      "  (3): Linear(in_features=4, out_features=85, bias=True)\n",
      ")\n",
      "  epoch    train_loss    valid_loss    valid_recall_macro     dur\n",
      "-------  ------------  ------------  --------------------  ------\n",
      "      1        \u001b[36m0.7015\u001b[0m        \u001b[32m0.6975\u001b[0m                \u001b[35m0.4829\u001b[0m  0.3094\n",
      "      2        \u001b[36m0.6965\u001b[0m        \u001b[32m0.6930\u001b[0m                \u001b[35m0.4934\u001b[0m  0.2846\n",
…
     "output_type": "stream",
     "text": [
      "\u001b[32m[I 2022-12-04 02:21:42,324]\u001b[0m Trial 16 finished with value: 0.07698243114909782 and parameters: {'lr': 0.5028706831674834, 'batch_size': 1621, 'max_epoch': 42, 'optimizer__momentum': 0, 'optimizer__weight_decay': 0.002597788995317762, 'n_layers': 1, 'dropout': 0.679604028880842, 'n_units_l0': 4}. Best is trial 2 with value: 0.3337046826470163.\u001b[0m\n"
     ]
    },
    {
     "name": "stdout",
     "output_type": "stream",
     "text": [
      "[0.07692307692307693, 0.07710113960113961, 0.07692307692307693]\n",
      "Sequential(\n",
      "  (0): Linear(in_features=2048, out_features=359, bias=True)\n",
      "  (1): Dropout(p=0.15738264588487472, inplace=False)\n",
      "  (2): ReLU()\n",
      "  (3): Linear(in_features=359, out_features=5, bias=True)\n",
      "  (4): Dropout(p=0.15738264588487472, inplace=False)\n",
      "  (5): ReLU()\n",
      "  (6): Linear(in_features=5, out_features=291, bias=True)\n",
      "  (7): Dropout(p=0.15738264588487472, inplace=False)\n",
      "  (8): ReLU()\n",
      "  (9): Linear(in_features=291, out_features=85, bias=True)\n",
      ")\n",
      "Sequential(\n",
      "  (0): Linear(in_features=2048, out_features=359, bias=True)\n",
      "  (1): Dropout(p=0.15738264588487472, inplace=False)\n",
      "  (2): ReLU()\n",
      "  (3): Linear(in_features=359, out_features=5, bias=True)\n",
      "  (4): Dropout(p=0.15738264588487472, inplace=False)\n",
      "  (5): ReLU()\n",
      "  (6): Linear(in_features=5, out_features=291, bias=True)\n",
      "  (7): Dropout(p=0.15738264588487472, inplace=False)\n",
      "  (8): ReLU()\n",
      "  (9): Linear(in_features=291, out_features=85, bias=True)\n",
      ")\n",
      "Sequential(\n",
      "  (0): Linear(in_features=2048, out_features=359, bias=True)\n",
      "  (1): Dropout(p=0.15738264588487472, inplace=False)\n",
      "  (2): ReLU()\n",
      "  (3): Linear(in_features=359, out_features=5, bias=True)\n",
      "  (4): Dropout(p=0.15738264588487472, inplace=False)\n",
      "  (5): ReLU()\n",
      "  (6): Linear(in_features=5, out_features=291, bias=True)\n",
      "  (7): Dropout(p=0.15738264588487472, inplace=False)\n",
      "  (8): ReLU()\n",
      "  (9): Linear(in_features=291, out_features=85, bias=True)\n",
      ")\n",
      "  epoch    train_loss    valid_loss    valid_recall_macro     dur\n",
      "-------  ------------  ------------  --------------------  ------\n",
      "      1        \u001b[36m0.6899\u001b[0m        \u001b[32m0.6865\u001b[0m                \u001b[35m0.3582\u001b[0m  0.4116\n",
      "      2        \u001b[36m0.6849\u001b[0m        \u001b[32m0.6817\u001b[0m                0.3408  0.3316\n",
…
      "\u001b[32m[I 2022-12-04 02:22:41,222]\u001b[0m Trial 17 finished with value: 0.11762628995903442 and parameters: {'lr': 0.06710717172444688, 'batch_size': 2022, 'max_epoch': 61, 'optimizer__momentum': 0, 'optimizer__weight_decay': 0.01166096818690166, 'n_layers': 3, 'dropout': 0.15738264588487472, 'n_units_l0': 359, 'n_units_l1': 5, 'n_units_l2': 291}. Best is trial 2 with value: 0.3337046826470163.\u001b[0m\n"
     ]
    },
    {
     "name": "stdout",
     "output_type": "stream",
     "text": [
      "[0.07692307692307693, 0.07692307692307693, 0.19903271603094938]\n",
      "Sequential(\n",
      "  (0): Linear(in_features=2048, out_features=104, bias=True)\n",
      "  (1): Dropout(p=0.43926679810812813, inplace=False)\n",
      "  (2): ReLU()\n",
      "  (3): Linear(in_features=104, out_features=43, bias=True)\n",
      "  (4): Dropout(p=0.43926679810812813, inplace=False)\n",
      "  (5): ReLU()\n",
      "  (6): Linear(in_features=43, out_features=85, bias=True)\n",
      ")\n",
      "Sequential(\n",
      "  (0): Linear(in_features=2048, out_features=104, bias=True)\n",
      "  (1): Dropout(p=0.43926679810812813, inplace=False)\n",
      "  (2): ReLU()\n",
      "  (3): Linear(in_features=104, out_features=43, bias=True)\n",
      "  (4): Dropout(p=0.43926679810812813, inplace=False)\n",
      "  (5): ReLU()\n",
      "  (6): Linear(in_features=43, out_features=85, bias=True)\n",
      ")\n",
      "Sequential(\n",
      "  (0): Linear(in_features=2048, out_features=104, bias=True)\n",
      "  (1): Dropout(p=0.43926679810812813, inplace=False)\n",
      "  (2): ReLU()\n",
      "  (3): Linear(in_features=104, out_features=43, bias=True)\n",
      "  (4): Dropout(p=0.43926679810812813, inplace=False)\n",
      "  (5): ReLU()\n",
      "  (6): Linear(in_features=43, out_features=85, bias=True)\n",
      ")\n",
      "  epoch    train_loss    valid_loss    valid_recall_macro     dur\n",
      "-------  ------------  ------------  --------------------  ------\n",
      "      1        \u001b[36m0.6994\u001b[0m        \u001b[32m0.6958\u001b[0m                \u001b[35m0.5108\u001b[0m  0.2781\n",
      "      2        \u001b[36m0.6968\u001b[0m        \u001b[32m0.6938\u001b[0m                0.5003  0.2521\n",
…
